data.pth (torch, 6719 bytes, 6 tensors)

l1.weight f4 [8, 92]
0	0xbe9d7d5a	-0.30759698
1	0xbe6325bc	-0.22182363
2	0xbdead5c3	-0.11466553
3	0xbee37ef8	-0.44432807
4	0x3e7498c4	0.238864
5	0x3dc41d84	0.09575942
6	0x3e2ad570	0.16682982
7	0x3ea8521d	0.32875147
8	0x3f54db77	0.83147377
9	0x3e958c61	0.29208663
10	0x3ef4118c	0.47669637
11	0x3cb007c8	0.021488085
12	0x3ec15752	0.37761933
13	0xbe415e2d	-0.18883581
14	0x3e539058	0.20660532
15	0x3ee779e6	0.4521019
16	0x3efc8a2d	0.4932417
17	0x3e8b9fef	0.27270457
18	0xbeb04f10	-0.3443532
19	0x3e8a3e74	0.27000773
20	0x3e96c9b9	0.29450777
21	0xbe60949a	-0.21931687
22	0xbed9346a	-0.424228
23	0xbedb2049	-0.4279807
24	0xbec2c7fd	-0.38043204
25	0xbdb9d908	-0.090745986
26	0x3e525d15	0.2054332
27	0x3ed82803	0.42218027
28	0x3be6a0db	0.0070382184
29	0xbe88f08c	-0.26746023
30	0x3f1181c6	0.56838644
31	0xbe86acd2	-0.26303726
32	0x3f07ee22	0.53097737
33	0x3ed59b40	0.4172001
34	0xbed5cea5	-0.4175922
35	0x3eb14e3a	0.34629995
36	0x3e1026fd	0.14077373
37	0x3df9c572	0.12195863
38	0x3eadc997	0.33942863
39	0xbe6c6173	-0.23084049
40	0x3e1132c3	0.1417952
41	0xbeb61f46	-0.35570735
42	0x3e303660	0.17208242
43	0x3dc3fabe	0.0956931
44	0x3e22a27a	0.15882292
45	0x3e8ef38a	0.2792018
46	0xbe021a6c	-0.12705392
47	0xbcfb6752	-0.030688915
48	0xbe182853	-0.14859132
49	0x3e965663	0.29362783
50	0x3e8403dc	0.25784194
51	0x3f1c6537	0.6109194
52	0x3e0f86bb	0.1401624
53	0xbe6faca2	-0.23405698
54	0x3e68c5c7	0.22731696
55	0x3e91a57d	0.2844657
56	0x3d979137	0.074007444
57	0x3e9c2bb6	0.305021
58	0x3f129d00	0.57270813
59	0xbe5fd72c	-0.21859425
60	0xbe288e43	-0.16460519
61	0xbe4ead99	-0.2018341
62	0xbded249d	-0.11579249
63	0x3e944824	0.2896129
64	0x3eb9c5c0	0.36283684
65	0x3eaa57cd	0.33270112
66	0xbdeb0e95	-0.11477391
67	0x3e81e07f	0.2536659
68	0x3e74664b	0.23867147
69	0x3e331256	0.17487463
70	0x3e0b9085	0.13629349
71	0x3f1f3ad8	0.62199163
72	0x3e88d2d0	0.26723337
73	0x3e1a8ace	0.15092012
74	0xbf194e06	-0.5988468
75	0xbcfb6c1d	-0.0306912
76	0x3ea59632	0.32341152
77	0x3f0335dd	0.51254064
78	0x3dc019d6	0.09379928
79	0x3eb338b2	0.35004193
80	0xbe8c1ebe	-0.27367204
81	0x3ec53fd1	0.3852525
82	0x3e7f0d50	0.24907422
83	0xbe666996	-0.22501215
84	0xbdb288a7	-0.087174706
85	0x3e87b979	0.26508692
86	0x3eece38e	0.4626736
87	0x3e63eb87	0.22257815
88	0x3e8be716	0.27324742
89	0xbe644d9c	-0.2229523
90	0x3dcd6636	0.10029261
91	0x3a341f2f	0.0006871102
92	0x3dd422b7	0.10358184
93	0xbd044305	-0.032290477
94	0xbd791a4f	-0.060816105
95	0xbe320fc9	-0.17388834
96	0x3eb7a7e6	0.35870284
97	0xbbe8adb0	-0.0071007833
98	0xbe991910	-0.29901934
99	0x3eb53dea	0.353988
100	0x3eafad95	0.3431212
101	0xbe18d6ed	-0.14925738
102	0xbe98b416	-0.29824895
103	0x3f674e4f	0.90353864
104	0xbdd56052	-0.10418762
105	0xbcdf0f38	-0.027228937
106	0xbe96c7f0	-0.29449415
107	0xbe22ab38	-0.15885627
108	0xbe291d7e	-0.16515157
109	0x3eee382c	0.4652723
110	0xbe28a2cc	-0.16468352
111	0xbd8935c4	-0.06699708
112	0xbe658b29	-0.22416367
113	0xbdbd54ef	-0.092447154
114	0xbe504aab	-0.20340984
115	0xbdb1f9e3	-0.0869024
116	0x3acc3a8b	0.0015581412
117	0xbb65f960	-0.0035091266
118	0xbdf83d53	-0.12121072
119	0x3ebcfe5a	0.36912805
120	0x3f66cb34	0.90153813
121	0xbe3eaca6	-0.18620548
122	0x3ef38c62	0.4756804
123	0xbda3bf08	-0.07995421
124	0x3ee7cc97	0.45273277
125	0x3f00ef7e	0.50365436
126	0xbd6eb2ec	-0.058276102
127	0x3ea81924	0.3283168
128	0x3d736b14	0.05942829
129	0xbe7a5ee5	-0.24450262
130	0x3e32feeb	0.17480056
131	0x3cc93aff	0.024564264
132	0xbcb2cc97	-0.021826072
133	0xbe0ea73e	-0.13930985
134	0x3f3118e5	0.6917861
135	0xbd6b06b5	-0.057379443
136	0xbb80d01b	-0.003931058
137	0x3cb50397	0.022096438
138	0xbe430875	-0.19046195
139	0x3eab4ba0	0.33456135
140	0xbe1fae57	-0.15593849
141	0xbce44b62	-0.027867977
142	0xbd607bb3	-0.05480547
143	0xbe658d7c	-0.22417253
144	0xbdeada98	-0.11467475
145	0xbd497426	-0.049183033
146	0xbe25c216	-0.16187319
147	0xbe81fc6e	-0.253879
148	0x3c2dad60	0.010600418
149	0xbe2f60fa	-0.17126837
150	0xbe1c5460	-0.15266562
151	0xbdf6f7d0	-0.12058985
152	0xbaa55b8f	-0.0012615788
153	0xbe36e3c0	-0.17860317
154	0xbd25e9b0	-0.040506065
155	0xbd93d9ae	-0.072192535
156	0x3db3dfba	0.08782907
157	0xbe890b83	-0.26766595
158	0xbd087bc7	-0.03332117
159	0xbe352aac	-0.1769206
160	0xbe113030	-0.14178538
161	0xbe63eedd	-0.22259088
162	0x3f338419	0.7012344
163	0xbe7cd5f4	-0.24690992
164	0xbd37bbcd	-0.044856835
165	0xbe1802db	-0.1484484
166	0xbf15adec	-0.5846851
167	0xbe0c49cb	-0.13700025
168	0xbe323208	-0.17401898
169	0x3e822d10	0.25425005
170	0x3d0323f5	0.032016713
171	0xbe4d0b5d	-0.20023866
172	0xbe128ea1	-0.14312221
173	0xbe57a12c	-0.21057576
174	0xbe750bb8	-0.23930252
175	0xbd8f162d	-0.069866516
176	0xbd46a2ad	-0.048494983
177	0xbe1b33e0	-0.15156507
178	0xbe4d91c8	-0.20075142
179	0xbe06c993	-0.13162832
180	0xbd921676	-0.0713319
181	0xbd9ee24a	-0.07758005
182	0xbcc6e999	-0.02428131
183	0x3e6c1abf	0.23057078
184	0xbe10c4ec	-0.1413762
185	0x3edfa0a2	0.4367724
186	0x3eb20c84	0.34775174
187	0xbe322f26	-0.17400798
188	0xbe104610	-0.14089227
189	0x3e95913a	0.29212362
190	0x3e1e7f58	0.15478265
191	0xbe552ae3	-0.20817141
192	0xbc1ef789	-0.009702572
193	0x3c2f9cff	0.010718583
194	0x3f1a3886	0.602425
195	0xbea43a96	-0.32075948
196	0x3e4c480c	0.19949359
197	0xbe5f6e3b	-0.21819393
198	0x3ee33322	0.4437495
199	0xbe9554e1	-0.2916632
200	0x3e90473e	0.28179353
201	0x3d938e38	0.072048604
202	0xbe99c18d	-0.3003048
203	0xbdb519fc	-0.08842847
204	0x3ee94f96	0.45568532
205	0x3e8bbc4c	0.27292097
206	0xbe7a76b7	-0.24459349
207	0x3d7eb8ae	0.062187843
208	0x3d5ad3ef	0.053424772
209	0x3ea07ccf	0.3134522
210	0xbc791da0	-0.015204817
211	0x39f4a3f9	0.00046661476
212	0xbea48494	-0.321324
213	0xbc612a10	-0.013742939
214	0xbd989ea0	-0.0745213
215	0xbe2a9149	-0.16656984
216	0x3d56fb29	0.05248562
217	0x3e1dfe84	0.15429121
218	0x3e47aaff	0.19498824
219	0x3ee93e6a	0.4555543
220	0x3e60e485	0.21962173
221	0x3e80e68b	0.2517589
222	0x3ea5f559	0.32413748
223	0x3e82508e	0.25452083
224	0x3ebe6ef1	0.37194017
225	0x3d200e98	0.039076418
226	0xbe23abcc	-0.15983504
227	0x3eca45ca	0.3950637
228	0x3e9cf79b	0.30657658
229	0xbe0a0ca9	-0.13481392
230	0x3ede2ec2	0.43395048
231	0xbdc69bc8	-0.09697682
232	0x3eedd33c	0.46450222
233	0x3ee62bc5	0.44955269
234	0x3e90ac08	0.2825625
235	0xbe2ece95	-0.17070992
236	0xbe80fe8e	-0.2519421
237	0x3d3e211d	0.046418298
238	0x3ea93ef6	0.33055848
239	0x3eb443a5	0.3520786
240	0x3e523e7c	0.20531648
241	0x3f0f9983	0.56093615
242	0xbe323677	-0.17403589
243	0x3d9f72de	0.07785581
244	0x3dfb1d36	0.12261431
245	0x3dcb08c4	0.09913781
246	0x3ceb6c8a	0.028738279
247	0xbc100962	-0.0087913
248	0xbdb31d62	-0.08745839
249	0x3ed3ae0b	0.41343722
250	0x3e771e0e	0.24132559
251	0x3e509c9d	0.20372243
252	0x3eb1277d	0.3460044
253	0x3e603808	0.21896374
254	0xbe6c7be8	-0.23094141
255	0xbdf5fa84	-0.12010673

l1.bias f4 [8]
0	0x3f193d48	0.5985913
1	0x3f9038ed	1.1267372
2	0x3ea41d10	0.32053423
3	0x3f4c16e8	0.7972245
4	0x3eaa4a60	0.3325987
5	0x3ed46b44	0.41488087
6	0x3f139d4d	0.57661897
7	0x3f77c1b8	0.96779966

l2.weight f4 [8, 8]
0	0x3f56e7aa	0.8394724
1	0xbf86846f	-1.0509166
2	0x3f15ea24	0.58560395
3	0xbdc8bc86	-0.09801583
4	0x3f7cc785	0.9874194
5	0x3f6807d4	0.90636945
6	0x3f0d6283	0.5522844
7	0xbf4002d2	-0.75004303
8	0xbd05dd69	-0.032681856
9	0x3dcee094	0.10101429
10	0xbea6a474	-0.32547343
11	0x3daff5d3	0.08591809
12	0x3da0ab0a	0.07845123
13	0xbcc7080f	-0.024295835
14	0xbdd985e6	-0.10621242
15	0xbea5a83d	-0.32354918
16	0xbe40a49a	-0.1881279
17	0x3f7b77e0	0.9822979
18	0xbf43951d	-0.76399404
19	0x3fb65286	1.4243934
20	0x3f8832cb	1.0640501
21	0x3d137940	0.036004305
22	0x3eb11ff8	0.34594703
23	0x3f90c62a	1.1310475
24	0xbe5ebe1d	-0.2175221
25	0xbdd71fe8	-0.105041325
26	0xbd46b270	-0.048510015
27	0x3e75d1bd	0.2400579
28	0xbe0d8560	-0.1382041
29	0xbe966b0f	-0.29378554
30	0xbda6e43a	-0.081489995
31	0xbe9c6561	-0.30546096
32	0x3ea12092	0.31470162
33	0x3daefbcf	0.085441224
34	0x3f4507c7	0.7696499
35	0xbf803cd6	-1.0018566
36	0xbf09ee59	-0.53879315
37	0x3f3ba6a8	0.7330117
38	0x3f1c9f3b	0.61180466
39	0x3f06d5e1	0.52670103
40	0x3f833a00	1.0252075
41	0xbc526490	-0.012841359
42	0x3e962602	0.29325873
43	0xbf7dcb26	-0.99138105
44	0xbf39865b	-0.72470635
45	0x3f58db4f	0.8470964
46	0x3ee8cc09	0.45468166
47	0x3ec08b50	0.37606287
48	0xbef446be	-0.47710222
49	0xbf6228b1	-0.8834334
50	0x3f36563d	0.7122534
51	0xbe8495dc	-0.25895584
52	0x3edca198	0.43092036
53	0x3eb42e50	0.35191584
54	0x3f7915d4	0.9729893
55	0x3f28a455	0.6587575
56	0x3f926832	1.1438048
57	0x3fbeec40	1.4915848
58	0xbdd62d0e	-0.10457812
59	0xbe95d592	-0.29264504
60	0xbf865c2f	-1.0496882
61	0x3ea97a6c	0.33101213
62	0x3f0bbde2	0.54586613
63	0x3ee5022b	0.44728217

l2.bias f4 [8]
0	0x3db255f4	0.087078005
1	0xbe814b92	-0.25252968
2	0x3f8ea5b8	1.1144323
3	0xbe309ef8	-0.17248142
4	0x3e1027c0	0.14077663
5	0x3e61d8ec	0.22055405
6	0xbf1082c9	-0.5644956
7	0x3f023668	0.5086427

l3.weight f4 [7, 8]
0	0x3e08ff8d	0.13378735
1	0xbc4d1fbe	-0.012519775
2	0xbfb0d33d	-1.3814465
3	0x3d944215	0.07239167
4	0x3edfa054	0.43677008
5	0x3f16813f	0.58790964
6	0x3ceeb2c0	0.029137969
7	0xbd331ac5	-0.0437267
8	0x3e188da6	0.14897785
9	0x3e825d43	0.25461778
10	0x3e6ee4e5	0.23329504
11	0xbeb69339	-0.35659197
12	0xbf2892f6	-0.65849245
13	0xbf9a6abb	-1.2063822
14	0x3e9b677b	0.30352387
15	0xbf98b96d	-1.1931587
16	0xbf0e62bf	-0.55619425
17	0xbe45e662	-0.19326165
18	0x3eafc54f	0.34330222
19	0x3e1ae5c3	0.1512671
20	0xbfcefc79	-1.6170799
21	0xbfd8780b	-1.6911634
22	0xbf0add4f	-0.5424394
23	0x3f461715	0.7737897
24	0xbf4062dd	-0.75150853
25	0xbe471a2d	-0.19443579
26	0xbed452c2	-0.4146939
27	0xbe158e31	-0.14605023
28	0x3ec77167	0.38953707
29	0x3f2de6d8	0.67930365
30	0xbf718854	-0.94348645
31	0x3f040d42	0.5158273
32	0x3f2cfa69	0.67569596
33	0xbe2ec484	-0.17067152
34	0x3cfa4479	0.030550228
35	0x3db05b45	0.08611158
36	0xbf28b5e6	-0.65902555
37	0xbde88e96	-0.11355321
38	0xbf763b00	-0.96183777
39	0xbf3e378c	-0.7430351
40	0xbf05888a	-0.5216147
41	0xbe6eb1a0	-0.23309946
42	0x3f90b2a6	1.1304519
43	0xbea1c5cf	-0.31596228
44	0xbf81c67a	-1.0138695
45	0xbeff0845	-0.49810997
46	0xbfbff963	-1.4997982
47	0xc000cd49	-2.0125296
48	0x3e8294e5	0.25504223
49	0x3d2962e0	0.04135406
50	0xbf299d58	-0.6625571
51	0x3e82417f	0.25440595
52	0x3edbe2c8	0.42946458
53	0xbe398410	-0.18116784
54	0x3edbf17a	0.4295767
55	0xbf984ede	-1.1899068

l3.bias f4 [7]
0	0xbb2dc205	-0.002651335
1	0xbe9ef897	-0.31049034
2	0x3e677003	0.22601323
3	0x3e4d212b	0.20032184
4	0xbe796554	-0.2435506
5	0x3df45384	0.11929992
6	0xbeb61a2a	-0.35566837
